LuminanceEnhancer/weights/Epoch99.pth (torch, 50385 bytes, 26 tensors)

e_conv1.depth_conv.weight f4 [1, 1, 3, 3]
000000 01 1f 80 3e d9 9a 3f 3c 09 92 64 3e 61 c1 7a 3c
       0.25023654 0.011694633 0.22321333 0.015304894
000010 f2 83 16 be f4 43 49 3d b7 de 79 3e 7d 5d d2 3c
       -0.1469877 0.04913707 0.24401365 0.025679344
000020 1a ef 5c 3e
       0.21575585

e_conv1.point_conv.weight f4 [32, 1, 1, 1]
000000 78 8e bc 3d 95 1a cd 38 ef f0 c7 be 68 00 cf 3e
       0.09206861 9.780113e-05 -0.39051005 0.40429997
000010 0e a0 00 80 6a 7d a0 9f d5 97 1d be 62 0c c1 3c
       -5.7417e-41 -6.7970116e-20 -0.1538995 0.023565475
000020 9c 18 9c bd ca ba f3 38 95 b5 37 b1 5e 86 1d b7
       -0.07621881 0.00011621935 -2.6733222e-09 -9.389214e-06
000030 2e 00 6f 3d 67 64 fa 2f 3e 8b 52 3e da 83 ff 3d
       0.05834978 4.5546075e-10 0.20560929 0.124763206
000040 1d 7a b6 39 6f c5 00 80 f0 6a e5 3e a6 4c ff 34
       0.00034804727 -7.0826e-41 0.4480815 4.755322e-07
000050 35 99 cc bd f9 b5 7d 3e 6f 57 00 80 47 01 64 3d
       -0.099901594 0.24776448 -3.1365e-41 0.05566528
000060 23 9a 00 80 f3 33 01 00 23 05 fd 9d 1a 7e 00 00
       -5.5294e-41 1.10471e-40 -6.6973854e-21 4.5237e-41
000070 62 3d 23 3d 15 fd 81 3d 34 7e 00 00 65 ac f5 be
       0.03985346 0.063471 4.5273e-41 -0.4798309

e_conv1.point_conv.bias f4 [32]
000000 fb d3 09 ba 41 3c 35 ba 61 b2 a4 3e ce ef bc 3c
       -0.0005257723 -0.00069135806 0.32167342 0.023063567
000010 8e aa 84 a0 05 0f 69 a1 68 09 5a 3f 40 6e 0d 3f
       -2.2474533e-19 -7.896335e-19 0.851706 0.55246353
000020 24 0f 80 3e 0d 49 5a b9 9c f4 8e b3 66 66 54 b7
       0.2501155 -0.00020817314 -6.6568845e-08 -1.2660026e-05
000030 a4 09 fb 3e 01 0f d9 b1 9d f7 fd 3d 2e 53 15 3c
       0.49030793 -6.317237e-09 0.12400744 0.00911407
000040 6e 0c 96 3e fb be 00 00 e2 74 f4 3e f0 55 2d b6
       0.29306358 6.8511e-41 0.47745425 -2.582903e-06
000050 87 81 68 3a bc bb 8d bd a6 e9 14 9d 2f a0 e4 3d
       0.0008869399 -0.06920573 -1.970843e-21 0.11163365
000060 64 3a 00 00 fd 8b 00 80 dd 92 d9 ac a1 69 00 80
       2.0947e-41 -5.0218e-41 -6.183816e-12 -3.7893e-41
000070 53 b9 a3 bc 2a 6e fe bc c9 68 11 ac 05 52 29 3f
       -0.01998583 -0.03105839 -2.0663907e-12 0.66140777

e_conv2.depth_conv.weight f4 [32, 1, 3, 3]
000000 cf b6 cd bb 51 23 59 bb c1 6e b5 bb b4 4c 8b bb
       -0.006277896 -0.0033132622 -0.0055368845 -0.004251087
000010 2e 83 aa ba a0 50 60 bb 41 e7 be bb c9 de 4a bb
       -0.0013009065 -0.0034227744 -0.0058259075 -0.0030955544
000020 b7 c2 9f bb d2 5f 86 91 e2 72 0a 12 8a 48 0d 91
       -0.0048755067 -2.1200526e-28 4.3686726e-28 -1.1145292e-28
000030 26 90 24 92 1d f5 0b 12 74 88 a4 11 30 22 81 91
       -5.192695e-28 4.416279e-28 2.5958733e-28 -2.037368e-28
000040 64 1e cc 91 1b 24 9b 11 ae 09 e5 bc bf 5a 2b bb
       -3.2204255e-28 2.447694e-28 -0.027958717 -0.0026146618
000050 ee 49 b3 bd c0 76 b8 bc 03 28 df 3b 0e 80 94 bd
       -0.08754335 -0.022517562 0.0068101897 -0.07250987
000060 1b d5 8c bd 43 78 2a bd 6e 95 d3 bd d0 cc dd bd
       -0.06876584 -0.041618597 -0.10331236 -0.108300805
000070 4b 96 23 bd 1f 63 d2 bd 2c a5 84 bd 8a 3d 9a 3b
       -0.039938252 -0.10272812 -0.064768165 0.004707043
000080 21 6a 5c bd 5e 6d e6 bd 3d 9d 43 bd 08 4e d3 bd
       -0.05381215 -0.11251329 -0.047757376 -0.10317618
000090 27 5a 00 00 73 2b 01 80 db 5a 01 00 90 d2 00 00
       3.234e-41 -1.07422e-40 1.24428e-40 7.5536e-41
0000a0 fa 5f 01 80 e4 b7 00 80 f7 e0 00 00 c5 b5 01 80
       -1.26265e-40 -6.5968e-41 8.0702e-41 -1.57042e-40
0000b0 67 f0 00 00 47 fd b6 14 7c 82 a8 14 90 ee b2 14
       8.624e-41 1.8477204e-26 1.7015132e-26 1.8067503e-26
0000c0 3f 13 af 14 23 87 9f 14 55 38 a9 14 a9 d2 b6 14
       1.7678076e-26 1.6108199e-26 1.7086858e-26 1.8460394e-26
0000d0 3d b7 a8 14 5f 67 ae 14 04 0e 85 3b 89 77 c0 3b
       1.703594e-26 1.7610283e-26 0.0040605087 0.0058736247
0000e0 da ec 04 bc 3b 97 f6 3a 1f 3d a5 3a 38 76 86 bc
       -0.00811311 0.0018813381 0.0012606716 -0.016413793
0000f0 d4 ef 8e b9 e6 c5 b4 ba 05 86 89 bc e8 36 b8 bc
       -0.00027263036 -0.0013791888 -0.016787538 -0.022487119
000100 c3 e0 96 bc b9 25 8e bd 24 bd 43 bd 5d b3 cd 3c
       -0.018417722 -0.06940789 -0.0477878 0.025109941
000110 03 17 8b bd b5 36 4a bd 44 25 55 bd c7 1f 66 bd
       -0.067914985 -0.04936858 -0.052037492 -0.05618265
000120 71 f7 84 b9 62 8b f4 b7 4e de 24 ba 95 42 01 ba
       -0.0002536136 -2.9151972e-05 -0.00062892295 -0.0004930881
000130 64 5e 8b b9 92 f4 5f ba 9e 44 06 ba 92 cb a3 b9
       -0.00026582472 -0.0008543219 -0.0005121919 -0.00031241454
000140 9a df 63 ba cd df 01 00 97 fc 01 00 d0 7b 01 00
       -0.0008692682 1.7212e-40 1.82448e-40 1.36251e-40
000150 12 07 00 00 88 96 00 80 bc 9a 00 80 92 8e 01 00
       2.536e-42 -5.4e-41 -5.5508e-41 1.4298e-40
000160 44 9c 01 00 06 b6 00 00 dc 0c 01 80 40 2e 00 00
       1.47893e-40 6.5298e-41 -9.6449e-41 1.6591e-41
000170 3b e4 00 80 d8 53 00 80 01 3a 01 00 48 47 01 00
       -8.1874e-41 -3.0077e-41 1.12643e-40 1.17406e-40
000180 d8 86 00 80 2c bb 00 00 9e 21 01 00 8e 0a 01 00
       -4.8373e-41 6.7145e-41 1.03895e-40 9.5622e-41
000190 0f 03 00 80 05 7d 01 00 95 ed 00 80 70 03 02 80
       -1.097e-42 1.36684e-40 -8.5228e-41 -1.84904e-40
0001a0 01 e4 01 80 e1 38 00 00 22 06 00 00 6d de 01 80
       -1.73628e-40 2.0404e-41 2.2e-42 -1.71627e-40
0001b0 ee 42 b0 b7 52 77 9f b7 c5 39 6d b7 4d ce 9a b7
       -2.1012002e-05 -1.900984e-05 -1.4139751e-05 -1.8454297e-05
0001c0 07 fa 89 b7 6b 99 40 b7 62 6b a6 b7 c8 01 96 b7
       -1.64481e-05 -1.1479812e-05 -1.9838746e-05 -1.7882223e-05
0001d0 8c a0 56 b7 29 aa 00 80 e5 f1 00 00 97 9a 00 80
       -1.2792774e-05 -6.1042e-41 8.6775e-41 -5.5456e-41
0001e0 92 5c 01 80 87 a0 01 80 06 8f 00 80 55 c4 01 00
       -1.25043e-40 -1.49422e-40 -5.1307e-41 1.62266e-40
0001f0 d7 f4 01 00 1e 02 02 00 0e 87 5d a9 3f 5a 1e a9
       1.79667e-40 1.8443e-40 -4.9189e-14 -3.5161324e-14
000200 25 4b 64 a9 b4 d4 18 a9 7e af ae a8 16 41 18 a9
       -5.0691347e-14 -3.393527e-14 -1.9393988e-14 -3.3807233e-14
000210 ba d7 55 a9 71 bd 1a a9 8e 20 52 a9 c3 8b 75 bb
       -4.7482614e-14 -3.4359183e-14 -4.6657604e-14 -0.0037467338
000220 c1 36 fc ba fd dc 51 bb 7d 1d 20 bb bd 93 22 ba
       -0.0019242392 -0.0032022588 -0.002443164 -0.0006201824
000230 13 c8 f1 ba 04 43 5f bb 50 5a e1 ba ce 4b 33 bb
       -0.0018446468 -0.0034067044 -0.0017193053 -0.0027358416
000240 16 0d f7 3a 7a 51 ca 3a bf db 8b 3a 5d b9 6e 3a
       0.0018848504 0.0015435659 0.0010670348 0.0009106601
000250 2f ca 13 3a 69 24 5b b8 c8 1c b1 3a ae 83 87 3a
       0.00056377327 -5.224758e-05 0.0013512606 0.0010338926
000260 e2 15 e6 39 75 cb 00 00 d5 e5 00 00 e4 c9 00 00
       0.00043885323 7.2987e-41 8.2448e-41 7.2425e-41
000270 7c b5 00 00 83 b4 00 00 51 c4 00 00 0e 8f 00 00
       6.5104e-41 6.4755e-41 7.0425e-41 5.1318e-41
000280 21 d2 00 00 90 b2 00 00 46 de ee bd b8 97 12 be
       7.538e-41 6.4056e-41 -0.11663489 -0.14315689
000290 95 c5 0c be cb b8 6d bd 88 a1 62 bd c3 08 bb bd
       -0.13747247 -0.05803756 -0.05532983 -0.091325305
0002a0 16 e1 10 be a3 3d f4 bd 48 47 18 be f8 5c 00 80
       -0.14148363 -0.11925819 -0.14870942 -3.3351e-41
0002b0 fb ad 00 80 45 10 00 00 b5 ae 00 80 c3 5e 00 00
       -6.2412e-41 5.836e-42 -6.2673e-41 3.3994e-41
0002c0 59 ee 00 00 42 55 00 00 64 f1 00 80 47 05 01 80
       8.5503e-41 3.0585e-41 -8.6595e-41 -9.3729e-41
0002d0 3f 8a f2 38 60 8a 0f 39 f6 b0 02 39 e9 83 06 39
       0.000115652096 0.00013689091 0.00012463689 0.00012828376
0002e0 70 35 1c 39 02 4d 0e 39 3d 88 fa 38 dc 9e 10 39
       0.00014897226 0.00013570863 0.00011946305 0.0001379209
0002f0 8a fd 01 39 e2 7d 38 32 65 d0 a1 32 ff a2 31 32
       0.0001239685 1.0738832e-08 1.8837634e-08 1.0339817e-08
000300 15 97 c0 32 98 ea 06 33 f3 4e cb 32 01 6a a1 32
       2.2420446e-08 3.1412668e-08 2.3668212e-08 1.8791072e-08
000310 4d cd e7 32 99 16 a1 32 a1 2b 02 00 40 b7 01 80
       2.69853e-08 1.8753143e-08 1.99322e-40 -1.57573e-40
000320 81 ab 01 00 9f 21 02 80 06 6a 01 80 4e b3 01 80
       1.5336e-40 -1.95732e-40 -1.2987e-40 -1.56158e-40
000330 5e 08 02 00 b0 7b 01 00 48 26 02 80 84 7e a0 36
       1.86673e-40 1.36206e-40 -1.97404e-40 4.7831e-06
000340 b7 ea 95 36 7f a2 9c 36 bc 6f 96 36 84 ae 8b 36
       4.4678704e-06 4.6680793e-06 4.483356e-06 4.162839e-06
000350 c6 96 92 36 fe db 97 36 e5 cc 8b 36 f8 27 93 36
       4.3686914e-06 4.525761e-06 4.1663757e-06 4.3855944e-06
000360 e7 0c 01 00 3d 65 01 00 d6 73 01 00 96 2a 01 80
       9.6464e-41 1.28153e-40 1.3339e-40 -1.07112e-40
000370 99 53 01 00 f2 9e 01 80 20 6d 01 00 10 8a 01 80
       1.21825e-40 -1.48854e-40 1.30982e-40 -1.41363e-40
000380 ae 42 00 80 33 8d 00 00 d5 58 01 80 4b c1 00 00
       -2.392e-41 5.0653e-41 -1.23702e-40 6.934e-41
000390 fc c1 00 00 2a 93 01 00 a6 95 01 80 ef d1 00 00
       6.9588e-41 1.44628e-40 -1.45519e-40 7.531e-41
0003a0 7f 9f 00 00 26 46 01 00 6d fa 01 00 56 4a 01 00
       5.7216e-41 1.17e-40 1.81671e-40 1.18502e-40
0003b0 aa aa 01 80 8b b9 01 00 13 c4 01 00 4a 17 02 00
       -1.53058e-40 1.58396e-40 1.62174e-40 1.92026e-40
0003c0 d3 87 00 80 a2 ee 01 00 6e 8a 00 80 e8 a7 01 80
       -4.8725e-41 1.77441e-40 -4.9659e-41 -1.52069e-40
0003d0 3b 69 01 80 5c 8e 01 80 97 ad 01 80 70 f0 01 00
       -1.29585e-40 -1.42904e-40 -1.54108e-40 1.78088e-40
0003e0 f3 04 02 00 be 70 01 80 18 b1 01 80 a3 f5 01 00
       1.85446e-40 -1.3228e-40 -1.55365e-40 1.79953e-40
0003f0 1c bb ac a3 66 e0 d1 a3 33 1a 97 a3 0f b2 fb a3
       -1.8727521e-17 -2.2754862e-17 -1.6382549e-17 -2.7288885e-17

e_conv2.depth_conv.bias f4 [32]
000000 49 dd cb 3c 27 78 44 ad 37 e0 00 3d 9d 6f c5 bd
       0.02488579 -1.1167989e-11 0.031463828 -0.09640429
000010 b8 52 ce aa a1 39 23 b2 23 26 02 bb 9c c5 83 3d
       -3.6650349e-13 -9.500952e-09 -0.0019859157 0.06434175
000020 29 d7 cb 3b 78 a7 aa a9 98 d4 29 3d 23 62 6c b2
       0.0062207174 -7.578568e-14 0.04146251 -1.3759322e-08
000030 fa 9a 08 b7 de 8a 30 ad 67 07 9f 28 97 12 9e 3c
       -8.142315e-06 -1.0035276e-11 1.7655756e-14 0.019295974
000040 5b 88 00 bc 5c 1b 4f 29 13 6d d7 3d a6 4c 6e bd
       -0.00784501 4.5986964e-14 0.10518851 -0.058178566
000050 27 e4 84 bb f8 f6 54 33 f9 20 64 2a 59 c9 4c b6
       -0.004055518 4.9584713e-08 2.0261908e-13 -3.0515569e-06
000060 1e 8c ef 3a 5f 0d c4 2e 9c a6 64 36 f1 4e 15 38
       0.0018276011 8.915423e-11 3.4071627e-06 3.559789e-05
000070 ea 9f ca a4 ac 31 30 a6 c5 8c 0c bb ce 10 09 3d
       -8.787444e-17 -6.1129584e-16 -0.002144621 0.03346329

e_conv2.point_conv.weight f4 [32, 32, 1, 1]
000000 cc 9a 00 80 6a 31 02 00 7c c5 00 80 b2 a7 01 80
       -5.553e-41 2.01397e-40 -7.0844e-41 -1.51993e-40
000010 ca a7 01 80 ca 0f 01 80 09 40 00 00 be 3e 01 80
       -1.52027e-40 -9.75e-41 2.2971e-41 -1.14343e-40
000020 58 b1 00 00 23 66 01 80 00 01 00 00 cd 09 02 80
       6.3619e-41 -1.28475e-40 3.59e-43 -1.87187e-40
000030 1e 86 00 80 22 03 00 80 f4 1e 00 80 fb 4d 01 00
       -4.8112e-41 -1.124e-42 -1.1104e-41 1.1981e-40
000040 fe 2e 00 00 11 50 01 00 a1 80 01 80 21 20 01 00
       1.6858e-41 1.20558e-40 -1.37979e-40 1.03361e-40
000050 c2 a3 00 00 10 f3 00 80 68 b5 01 80 26 ff 01 80
       5.8745e-41 -8.7194e-41 -1.56912e-40 -1.83366e-40
000060 9c 9a 00 80 14 14 01 80 90 61 01 80 75 21 01 80
       -5.5463e-41 -9.9038e-41 -1.26834e-40 -1.03838e-40
000070 c8 ac 01 80 4d b4 00 00 35 79 01 80 49 72 01 80
       -1.53818e-40 6.468e-41 -1.35316e-40 -1.32833e-40
000080 70 d4 01 80 22 57 00 80 e8 ad 00 00 d5 41 01 80
       -1.68044e-40 -3.1257e-41 6.2386e-41 -1.15452e-40
000090 20 d5 00 80 53 b1 01 00 73 a7 01 00 2d 47 01 00
       -7.6455e-41 1.55447e-40 1.51905e-40 1.17369e-40
0000a0 ef d5 01 00 91 10 01 80 aa 18 00 80 b9 3b 01 80
       1.6858e-40 -9.7778e-41 -8.848e-42 -1.1326e-40
0000b0 63 1d 01 80 e2 1a 01 80 90 fa 00 00 91 72 00 80
       -1.02377e-40 -1.01479e-40 8.9885e-41 -4.1099e-41
0000c0 e2 f6 01 00 eb 0a 01 80 38 39 00 80 e1 eb 01 00
       1.804e-40 -9.5752e-41 -2.0526e-41 1.76453e-40
0000d0 9e b8 00 00 dd 49 01 80 ce 3e 00 80 92 24 01 80
       6.6228e-41 -1.18333e-40 -2.253e-41 -1.04954e-40
0000e0 e3 e9 00 80 83 9c 00 80 d7 e3 00 80 a1 f3 01 00
       -8.3903e-41 -5.6146e-41 -8.1734e-41 1.79233e-40
0000f0 a2 b9 01 00 c1 f4 00 80 31 7d 01 80 29 00 00 80
       1.58428e-40 -8.7801e-41 -1.36746e-40 -5.7e-44
000100 46 73 01 80 88 64 00 80 e3 ec 01 00 b5 9d 00 80
       -1.33188e-40 -3.6064e-41 1.76814e-40 -5.6575e-41
000110 0f ba 01 80 6b 0c 01 80 e5 0a 01 80 c1 28 00 80
       -1.58581e-40 -9.629e-41 -9.5744e-41 -1.462e-41
000120 d4 cc 00 80 c9 7a 00 80 65 f1 00 00 2a b1 00 00
       -7.3478e-41 -4.4047e-41 8.6596e-41 6.3554e-41
000130 e2 ee 00 00 a7 fe 00 00 55 98 00 80 30 1c 00 00
       8.5695e-41 9.1352e-41 -5.4646e-41 1.0112e-41
000140 c8 e1 01 80 eb 72 01 80 f3 4d 00 80 27 a1 01 80
       -1.7283e-40 -1.3306e-40 -2.7963e-41 -1.49646e-40
000150 89 a7 00 00 da ec 01 00 d5 25 01 80 7c 08 02 80
       6.01e-41 1.76802e-40 -1.05407e-40 -1.86715e-40
000160 88 28 01 80 84 b3 01 80 21 09 01 00 67 a4 00 00
       -1.06375e-40 -1.56234e-40 9.511e-41 5.8976e-41
000170 72 0b 02 80 4c 54 01 00 73 f8 00 80 32 3b 01 80
       -1.87777e-40 1.22076e-40 -8.9127e-41 -1.13071e-40
000180 90 4e 4b 21 05 50 c2 91 6b 08 5b 22 ea be b1 a2
       6.888305e-19 -3.065712e-28 2.968449e-18 -4.8178084e-18
000190 01 61 5a 8f 3f ef 9f 96 d1 b0 e8 1f 74 9a 5c 22
       -1.0766912e-29 -2.583882e-25 9.854834e-20 2.9897327e-18
0001a0 9c 1c 50 20 da 87 2a 8e 1d 95 b2 21 d7 fa e9 96
       1.7627751e-19 -2.1019528e-30 1.2101219e-18 -3.7801482e-25
0001b0 35 c7 59 9b 54 4b b3 91 c8 e0 38 0c 78 b3 1d 21
       -1.8014187e-22 -2.8287645e-28 1.4242487e-31 5.3431194e-19
0001c0 54 a8 89 a0 c7 ac d0 0d 39 fe 6c 22 60 36 fe a1
       -2.3320093e-19 1.2860584e-30 3.2118548e-18 -1.7226102e-18
0001d0 59 7d 06 a0 f2 a2 e3 17 cb e5 e0 0e f3 e0 94 9a
       -1.1391716e-19 1.4710664e-24 5.5441546e-30 -6.157479e-23
0001e0 b8 ad 71 1f bc 35 45 13 e1 cd fc 1a 17 6c 96 1c
       5.1177432e-20 2.4891389e-27 1.0455737e-22 9.954108e-22
0001f0 c7 05 9d 88 7d 7b ad 8a 29 e4 8d 9f 09 71 80 23
       -9.450452e-34 -1.6705745e-32 -6.009328e-20 1.392566e-17
000200 82 bf 00 80 bd 20 02 00 3c 36 00 80 55 45 00 00
       -6.87e-41 1.95415e-40 -1.9456e-41 2.4872e-41
000210 04 41 01 80 17 5a 01 00 c2 d0 00 80 9d 29 00 00
       -1.15159e-40 1.24154e-40 -7.4888e-41 1.4928e-41
000220 13 27 00 80 02 fc 00 80 34 0b 01 80 21 34 02 00
       -1.4017e-41 -9.0403e-41 -9.5854e-41 2.02371e-40
000230 b6 90 00 00 ee 01 02 00 bf 39 00 80 84 14 01 80
       5.1913e-41 1.84363e-40 -2.0715e-41 -9.9195e-41
000240 5c 5d 00 80 13 30 01 00 e5 69 00 00 43 3d 01 00
       -3.3491e-41 1.09081e-40 3.7988e-41 1.13812e-40
000250 8d c2 00 80 7e 0b 00 00 62 54 00 00 29 54 01 80
       -6.9792e-41 4.123e-42 3.0271e-41 -1.22026e-40
000260 c8 b3 00 80 3b 98 00 80 56 1a 00 00 95 2f 00 00
       -6.4493e-41 -5.461e-41 9.448e-42 1.7069e-41
000270 dd 56 00 00 bd 76 00 80 2b a7 01 00 fe 88 00 80
       3.116e-41 -4.2595e-41 1.51804e-40 -4.9144e-41
000280 99 b3 ba 05 a0 7f 01 00 bf c5 41 86 cd c8 8b 87
       1.755733e-35 1.37619e-40 -3.6444546e-35 -2.1032416e-34
000290 7c 38 01 00 21 ce 0d 00 de 36 f7 81 30 22 c3 06
       1.12098e-40 1.267807e-39 -9.08122e-38 7.340108e-35
0002a0 0f 13 4e 05 a0 f9 01 00 bd 80 5c 06 a4 b1 02 00
       9.689574e-36 1.81384e-40 4.1471983e-35 2.47396e-40
0002b0 6b cc 49 02 2e 29 01 80 fd 87 01 80 a5 3d c6 05
       1.4825813e-37 -1.06608e-40 -1.40619e-40 1.8642475e-35
0002c0 f0 76 81 85 2a 99 01 00 98 5d 12 86 9e 5e 6b 06
       -1.2174792e-35 1.4678e-40 -2.752831e-35 4.42681e-35
0002d0 1f dc 01 04 f5 ec 01 80 22 0a 00 80 de 3a df 01
       1.5264952e-36 -1.7684e-40 -3.635e-42 8.2001733e-38
0002e0 20 cd 4e 84 69 e9 01 00 d1 ae 01 80 47 18 b2 80
       -2.4309372e-36 1.75567e-40 -1.54548e-40 -1.6355427e-38
0002f0 f5 d3 01 80 8c c4 01 80 1b af 66 04 d9 ea 45 86
       -1.67871e-40 -1.62343e-40 2.7116775e-36 -3.722412e-35
000300 40 5b d1 3a d3 d5 7c 2c 56 86 4b 3d ad f3 d6 bd
       0.0015972629 3.593005e-12 0.04968866 -0.10495696
000310 7e 68 8c 2a cd b8 aa 31 cf 68 7d b9 fa ae 81 bc
       2.4941502e-13 4.9686606e-09 -0.00024167004 -0.015830506
000320 43 28 4b 3a 42 b4 08 28 22 89 c7 3b f4 d6 af 31
       0.0007749835 7.588604e-15 0.0060893456 5.1176077e-09
000330 4a 2e d3 b5 56 8a 5b a9 59 5a 1f 29 f9 ba 01 3b
       -1.5734197e-06 -4.8747756e-14 3.5383456e-14 0.0019795282
000340 8c 41 96 ba 2e ea 58 a8 0d ba 07 be a8 8d 0c bc
       -0.0011463626 -1.2041188e-14 -0.13254566 -0.008578695
000350 ac f7 2a ba 62 a9 29 b3 ac c3 ad a9 1d 9a ed b5
       -0.00065218913 -3.950243e-08 -7.716687e-14 -1.7702729e-06
000360 87 46 ae 39 bf e2 8d 2b ad 32 12 b7 0b 63 af 34
       0.00033240413 1.0081587e-12 -8.714077e-06 3.2668353e-07
000370 e5 8a 59 a5 6d 44 5e 26 40 b0 84 b9 3e 71 97 3d
       -1.8868809e-16 7.7114457e-16 -0.00025308318 0.07394646
000380 a0 08 01 00 84 40 00 80 04 a5 01 00 cf 9e 00 00
       9.493e-41 -2.3144e-41 1.51032e-40 5.697e-41
000390 ac 35 01 00 e3 58 00 00 00 13 01 80 76 0b 00 00
       1.1109e-40 3.1887e-41 -9.8651e-41 4.111e-42
0003a0 78 3b 01 80 9f 0d 01 00 5c 43 00 00 2a a5 01 80
       -1.13169e-40 9.6722e-41 2.4164e-41 -1.51085e-40
0003b0 7f 9b 00 80 0a ac 01 00 69 8b 00 00 4b f0 00 80
       -5.5781e-41 1.53551e-40 5.0011e-41 -8.6201e-41
0003c0 72 2e 01 80 26 b5 00 00 99 f6 01 00 f4 54 01 00
       -1.08497e-40 6.4984e-41 1.80298e-40 1.22311e-40
0003d0 0f 4d 01 80 c4 21 00 00 bc 1b 01 80 d9 4d 00 80
       -1.19479e-40 1.2113e-41 -1.01785e-40 -2.7926e-41
0003e0 a7 b6 00 80 b6 87 00 00 3f 14 01 00 20 4a 01 00
       -6.5523e-41 4.8684e-41 9.9098e-41 1.18427e-40
0003f0 1a 6a 01 80 e8 93 01 80 7b 03 01 00 be a1 00 00
       -1.29898e-40 -1.44894e-40 9.3084e-41 5.8022e-41

e_conv2.point_conv.bias f4 [32]
000000 c8 f7 00 00 b5 72 01 00 ad 19 01 80 52 24 18 24
       8.8887e-41 1.32985e-40 -1.01046e-40 3.299051e-17
000010 39 a5 00 00 1d a0 8d 06 48 6a cc 3d 89 30 00 00
       5.9271e-41 5.327357e-35 0.09981209 1.7411e-41
000020 51 fe 01 80 9b 28 90 3d 6f 34 00 00 57 4c 00 00
       -1.83067e-40 0.07038995 1.881e-41 2.7386e-41
000030 42 06 01 00 23 3c 00 80 22 2f 01 80 ff 41 01 00
       9.408e-41 -2.1573e-41 -1.08744e-40 1.1551e-40
000040 ae 31 01 00 6b 00 00 80 a4 32 00 00 4f 22 73 3c
       1.09657e-40 -1.5e-43 1.8166e-41 0.014839723
000050 7c 8d 00 80 ed 3a 00 80 ff 31 01 80 e3 1e 01 00
       -5.0755e-41 -2.1139e-41 -1.09771e-40 1.02916e-40
000060 81 cc 00 80 12 98 4b 29 f5 c1 00 00 1d 4e 00 80
       -7.3362e-41 4.5206955e-14 6.9579e-41 -2.8022e-41
000070 23 95 00 80 39 f1 6b 3d 25 8f 3f 3c 01 2d 00 00
       -5.35e-41 0.057603095 0.011691843 1.6144e-41

e_conv3.depth_conv.weight f4 [32, 1, 3, 3]
000000 5c 7a 01 80 74 87 00 00 79 cc 00 00 c7 6e 01 80
       -1.3573e-40 4.8591e-41 7.3351e-41 -1.31575e-40
000010 2f bc 00 80 c8 c1 00 00 05 23 02 00 db d4 00 00
       -6.7508e-41 6.9516e-41 1.96234e-40 7.6358e-41
000020 bf a9 01 00 40 ed 00 80 bf 7c 00 00 f8 8d 00 00
       1.52729e-40 -8.5109e-41 4.475e-41 5.0929e-41
000030 f3 8d 01 00 b0 1f 00 80 eb 28 01 00 7c b6 00 80
       1.42757e-40 -1.1367e-41 1.06514e-40 -6.5463e-41
000040 d8 11 01 80 52 67 01 80 48 78 01 00 fb b7 00 00
       -9.8237e-41 -1.289e-40 1.34984e-40 6.6e-41
000050 92 70 00 00 d5 58 01 00 f8 18 01 00 c7 2c 01 00
       4.0383e-41 1.23702e-40 1.00793e-40 1.07899e-40
000060 83 0b 01 80 17 26 01 80 8e 71 01 80 a8 9d 01 00
       -9.5965e-41 -1.055e-40 -1.32571e-40 1.48392e-40
000070 ee 61 01 00 eb 3e 00 80 55 e7 00 80 ac 5b 00 80
       1.26966e-40 -2.2571e-41 -8.2986e-41 -3.2886e-41
000080 ed 9d 00 80 0f cd 00 00 47 d7 00 00 44 20 01 80
       -5.6653e-41 7.3561e-41 7.7227e-41 -1.0341e-40
000090 d6 23 01 00 6c b3 01 80 09 ff 00 80 3c 2e 01 80
       1.04691e-40 -1.562e-40 -9.149e-41 -1.08421e-40
0000a0 49 ad 01 80 d2 7a 01 00 3b 10 00 80 e7 5e 00 00
       -1.53998e-40 1.35895e-40 -5.822e-42 3.4045e-41
0000b0 e6 98 01 80 54 24 01 80 31 4e 01 00 0f 1e 01 00
       -1.46685e-40 -1.04868e-40 1.19885e-40 1.02618e-40
0000c0 0a 79 01 00 28 11 01 00 8f a1 00 00 5d 16 00 80
       1.35256e-40 9.799e-41 5.7956e-41 -8.022e-42
0000d0 4a 07 01 80 91 4e 01 80 37 a6 00 00 ad d4 00 00
       -9.445e-41 -1.2002e-40 5.9627e-41 7.6294e-41
0000e0 2e f5 01 00 53 20 01 80 ae d1 00 00 b9 17 00 80
       1.7979e-40 -1.03431e-40 7.5219e-41 -8.51e-42
0000f0 49 34 00 00 51 8d 00 80 14 50 00 00 2a c3 00 00
       1.8756e-41 -5.0695e-41 2.8727e-41 7.0012e-41
000100 4c 00 00 00 b1 1f 00 00 a6 e8 00 80 34 a6 00 00
       1.06e-43 1.1369e-41 -8.3459e-41 5.9622e-41
000110 ee 0a 01 80 33 af 00 00 98 00 00 00 89 11 01 00
       -9.5756e-41 6.285e-41 2.13e-43 9.8126e-41
000120 83 d3 00 00 f6 34 01 00 23 37 00 00 d9 d9 00 80
       7.5876e-41 1.10834e-40 1.978e-41 -7.8149e-41
000130 49 2a 01 00 98 74 00 80 bc 45 00 00 44 5a 00 80
       1.07005e-40 -4.1826e-41 2.5016e-41 -3.2381e-41
000140 79 d7 00 80 62 8c 00 80 c9 27 01 80 49 99 00 80
       -7.7297e-41 -5.036e-41 -1.06108e-40 -5.4988e-41
000150 94 3b 01 00 ba 0a 02 00 22 f1 00 80 a7 34 00 80
       1.13208e-40 1.87519e-40 -8.6502e-41 -1.8888e-41
000160 4f 16 00 80 15 92 01 00 8e 21 00 00 13 68 01 80
       -8.003e-42 1.4424e-40 1.2037e-41 -1.2917e-40
000170 27 7a 00 00 b3 cc 00 00 80 32 00 80 6a 0c 01 80
       4.382e-41 7.3432e-41 -1.8116e-41 -9.6289e-41
000180 8b 0f 01 80 dd 3c 00 80 30 af 00 80 86 e2 01 00
       -9.7411e-41 -2.1834e-41 -6.2845e-41 1.73097e-40
000190 2b 82 01 00 e8 bc 01 80 eb 79 01 00 10 56 01 80
       1.38531e-40 -1.59602e-40 1.35571e-40 -1.22709e-40
0001a0 93 8b 00 80 e5 be 01 80 05 2f 02 80 b8 48 01 00
       -5.007e-41 -1.60316e-40 -2.00538e-40 1.17922e-40
0001b0 66 7a 01 00 93 52 01 80 30 1f 00 00 c4 3b 00 80
       1.35744e-40 -1.21458e-40 1.1188e-41 -2.144e-41
0001c0 f6 f0 01 80 07 5e 00 80 14 06 00 80 7a 3a 00 00
       -1.78276e-40 -3.373e-41 -2.18e-42 2.0977e-41
0001d0 50 2f 01 00 c0 60 01 80 f3 bc 01 80 a6 2f 00 00
       1.08808e-40 -1.26543e-40 -1.59618e-40 1.7093e-41
0001e0 d6 d4 01 80 0c 40 00 00 40 bd 01 00 3f 47 01 00
       -1.68187e-40 2.2976e-41 1.59726e-40 1.17394e-40
0001f0 bb d8 00 00 e7 10 01 00 4b 41 01 00 32 f2 00 00
       7.7748e-41 9.7899e-41 1.15258e-40 8.6883e-41
000200 e2 27 02 00 b1 3d 00 80 22 ac 00 00 1c 73 00 80
       1.97978e-40 -2.2131e-41 6.175e-41 -4.1293e-41
000210 fc 37 00 00 21 45 01 00 bd 56 01 00 10 13 01 00
       2.0083e-41 1.16634e-40 1.22951e-40 9.8674e-41
000220 aa 7c 01 80 4b 67 01 80 62 b2 01 80 70 a8 01 00
       -1.36557e-40 -1.2889e-40 -1.55827e-40 1.5226e-40
000230 86 30 02 80 01 32 00 00 2e 16 01 00 c6 5e 01 80
       -2.01078e-40 1.7938e-41 9.9792e-41 -1.25834e-40
000240 fd cd 00 00 72 54 01 80 36 4e 01 00 93 19 02 80
       7.3895e-41 -1.22129e-40 1.19892e-40 -1.92845e-40
000250 dc a4 01 00 93 36 01 80 22 3e 01 80 69 3d 01 00
       1.50976e-40 -1.11413e-40 -1.14125e-40 1.13865e-40
000260 30 95 01 00 c9 d1 01 80 d1 14 00 80 26 c0 00 00
       1.45354e-40 -1.67092e-40 -7.468e-42 6.893e-41
000270 d2 b8 01 80 6e 8d 00 80 68 97 01 80 ef 37 01 00
       -1.58137e-40 -5.0735e-41 -1.4615e-40 1.119e-40
000280 e7 02 01 00 30 1e 01 00 3a 77 00 00 9d 46 01 00
       9.2877e-41 1.02665e-40 4.277e-41 1.17167e-40
000290 d2 97 00 00 47 34 00 80 c8 4b 01 00 05 4d 00 00
       5.4463e-41 -1.8754e-41 1.1902e-40 2.763e-41
0002a0 50 3e 00 80 db 23 00 80 a8 3c 00 00 d5 e4 00 80
       -2.2354e-41 -1.2863e-41 2.176e-41 -8.209e-41
0002b0 a3 27 00 80 53 30 01 80 f6 23 01 80 00 85 01 00
       -1.4219e-41 -1.09171e-40 -1.04736e-40 1.39547e-40
0002c0 f6 e3 00 80 9c 1c 01 80 71 18 01 80 94 2b 01 00
       -8.1777e-41 -1.02099e-40 -1.00603e-40 1.07468e-40
0002d0 b2 0a 00 00 97 1a 01 00 ce 19 01 80 a5 6f 01 00
       3.837e-42 1.01374e-40 -1.01092e-40 1.31886e-40
0002e0 da b0 01 00 46 e3 00 00 07 c6 01 00 a2 00 01 80
       1.55278e-40 8.153e-41 1.62874e-40 -9.2063e-41
0002f0 63 99 00 80 9d 2d 02 00 f2 0a 01 00 d2 69 01 00
       -5.5025e-41 2.00034e-40 9.5762e-41 1.29797e-40
000300 ef 49 00 00 78 b0 01 80 f3 14 02 80 7a ad 01 00
       2.6522e-41 -1.5514e-40 -1.91186e-40 1.54067e-40
000310 ea 1d 01 80 dd 8a 01 80 15 46 00 00 ce 0c 02 80
       -1.02567e-40 -1.4165e-40 2.514e-41 -1.88264e-40
000320 8f 6a 01 80 bf 24 01 00 ce 9b 00 00 0e fd 00 00
       -1.30062e-40 1.05018e-40 5.5892e-41 9.0779e-41
000330 f6 4f 01 00 93 1d 00 00 23 9d 00 80 40 68 01 80
       1.2052e-40 1.0609e-41 -5.637e-41 -1.29233e-40
000340 0a 90 00 00 2c 79 00 00 3b 9a 01 00 6d a7 00 80
       5.1671e-41 4.3468e-41 1.47163e-40 -6.0061e-41
000350 ad ad 00 80 b7 c9 00 80 cc 4d 00 00 70 e6 00 80
       -6.2303e-41 -7.2362e-41 2.7908e-41 -8.2665e-41
000360 28 73 00 80 8f fe 00 00 b6 b0 01 80 29 ad 01 00
       -4.131e-41 9.1318e-41 -1.55227e-40 1.53954e-40
000370 d0 48 00 80 49 32 01 80 da 1e 00 80 12 29 00 00
       -2.612e-41 -1.09874e-40 -1.1067e-41 1.4733e-41
000380 f1 08 02 00 e4 2d 02 80 c6 15 00 80 be f5 00 80
       1.86879e-40 -2.00133e-40 -7.811e-42 -8.8156e-41
000390 d4 cc 00 80 2c bc 01 80 a8 9b 00 80 43 37 00 00
       -7.3478e-41 -1.59339e-40 -5.5839e-41 1.9824e-41
0003a0 09 4e 00 00 14 b8 00 80 89 47 01 00 1e 72 00 80
       2.7994e-41 -6.6035e-41 1.17497e-40 -4.0938e-41
0003b0 d7 8f 00 00 5b a0 00 80 42 0f 01 00 61 bf 00 00
       5.16e-41 -5.7525e-41 9.7309e-41 6.8654e-41
0003c0 6d cf 00 80 d2 ce 00 80 ba aa 00 80 c0 63 00 80
       -7.441e-41 -7.4193e-41 -6.1245e-41 -3.5784e-41
0003d0 df ca 00 00 52 a8 00 00 2e db 00 80 a1 53 01 00
       7.2776e-41 6.0382e-41 -7.8627e-41 1.21836e-40
0003e0 f7 40 01 80 94 57 01 00 7d 48 01 80 e4 39 01 00
       -1.1514e-40 1.23253e-40 -1.1784e-40 1.12603e-40
0003f0 6a 91 01 00 ab 88 00 00 5d 5b 00 00 e2 1a 01 00
       1.44e-40 4.9027e-41 3.2775e-41 1.01479e-40

e_conv3.depth_conv.bias f4 [32]
000000 79 b6 00 00 3c 40 01 80 8e 8d 00 80 03 1b 01 00
       6.5459e-41 -1.14878e-40 -5.078e-41 1.01525e-40
000010 5d 06 01 00 7e 3f 01 00 c0 50 00 80 12 e9 00 80
       9.4118e-41 1.14612e-40 -2.8968e-41 -8.361e-41
000020 7b f5 00 00 75 4f 00 00 cc 03 01 00 a4 8d 00 80
       8.8062e-41 2.8504e-41 9.3198e-41 -5.0811e-41
000030 b1 58 00 00 2e 0e 01 80 98 6c 00 00 c3 78 00 00
       3.1816e-41 -9.6922e-41 3.8956e-41 4.3321e-41
000040 bf a2 00 00 d2 ec 00 80 2c 0c 00 80 d3 6e 01 80
       5.8382e-41 -8.4955e-41 -4.366e-42 -1.31592e-40
000050 ae c3 01 00 a7 50 00 00 a9 89 01 00 9d fb 00 80
       1.62032e-40 2.8933e-41 1.41219e-40 -9.0262e-41
000060 c0 bd 01 80 d5 4a 00 80 70 23 01 00 f9 01 01 00
       -1.59905e-40 -2.6845e-41 1.04548e-40 9.2543e-41
000070 49 f1 00 00 c5 9c 00 80 96 af 01 80 60 7f 00 00
       8.6557e-41 -5.6238e-41 -1.54824e-40 4.5694e-41

e_conv3.point_conv.weight f4 [32, 32, 1, 1]
000000 9a 1c 00 80 a4 3e 00 00 ab 27 01 80 c8 e9 01 00
       -1.026e-41 2.2471e-41 -1.06066e-40 1.757e-40
000010 4a 31 01 80 e2 45 01 80 f0 78 00 80 e7 33 01 80
       -1.09517e-40 -1.16905e-40 -4.3384e-41 -1.10455e-40
000020 63 98 01 80 7e ee 00 80 00 03 01 00 eb f0 00 80
       -1.46502e-40 -8.5555e-41 9.2912e-41 -8.6425e-41
000030 f1 8f 00 80 ae a6 00 00 1a 41 01 00 7c ea 00 80
       -5.1636e-41 5.9793e-41 1.1519e-40 -8.4117e-41
000040 aa 5a 01 80 b7 93 01 00 21 98 00 80 a6 e5 00 80
       -1.2436e-40 1.44826e-40 -5.4574e-41 -8.2382e-41
000050 15 85 00 00 c0 c3 01 00 20 09 01 80 8e 3f 00 00
       4.7741e-41 1.62057e-40 -9.5109e-41 2.2799e-41
000060 e9 b4 00 80 15 08 00 80 d4 0d 00 00 6c df 00 00
       -6.4898e-41 -2.899e-42 4.96e-42 8.0149e-41
000070 a0 11 00 80 f2 32 00 80 69 ad 01 80 cd ab 00 80
       -6.323e-42 -1.8276e-41 -1.54043e-40 -6.163e-41
000080 07 48 01 80 24 6e 00 80 1c b1 00 00 e8 93 00 00
       -1.17674e-40 -3.9511e-41 6.3535e-41 5.3059e-41
000090 1d 55 00 00 03 60 00 00 ad e3 00 80 3b 91 01 80
       3.0533e-41 3.4443e-41 -8.1675e-41 -1.43934e-40
0000a0 ad 87 00 00 51 21 00 00 39 bb 00 00 71 72 01 00
       4.8671e-41 1.1952e-41 6.7163e-41 1.3289e-40
0000b0 8d 76 00 80 51 1e 00 00 d1 8d 00 00 27 91 00 80
       -4.2528e-41 1.0875e-41 5.0874e-41 -5.2071e-41
0000c0 6e 6d 01 00 a3 5a 01 00 21 e6 01 00 2b a6 00 80
       1.31091e-40 1.2435e-40 1.7439e-40 -5.961e-41
0000d0 6c ea 00 80 bf 30 00 00 78 2a 00 00 3a 37 01 00
       -8.4095e-41 1.7487e-41 1.5235e-41 1.11647e-40
0000e0 52 bf 01 80 34 81 01 80 27 81 00 80 c7 c0 01 80
       -1.60468e-40 -1.38185e-40 -4.6331e-41 -1.60991e-40
0000f0 50 b8 00 00 6c 7a 01 80 4b b0 01 80 81 04 00 00
       6.6119e-41 -1.35752e-40 -1.55077e-40 1.616e-42
000100 60 3f 00 80 16 36 00 00 10 e1 00 00 bf 0f 01 00
       -2.2735e-41 1.9402e-41 8.0737e-41 9.7484e-41
000110 f4 cb 01 80 ed 31 01 80 fe 1f 02 00 84 3d 01 00
       -1.65e-40 -1.09745e-40 1.95148e-40 1.13903e-40
000120 7a e7 00 80 03 27 00 00 4e b3 00 00 e0 88 00 00
       -8.3038e-41 1.3995e-41 6.4322e-41 4.9101e-41
000130 a9 69 01 00 0a 8e 00 00 6a 34 00 00 80 03 02 00
       1.29739e-40 5.0954e-41 1.8803e-41 1.84927e-40
000140 83 95 01 80 64 95 00 80 2e 40 01 80 ea 7d 01 00
       -1.4547e-40 -5.3591e-41 -1.14859e-40 1.37005e-40
000150 57 5d 01 80 72 08 00 00 87 c1 00 00 4a 06 00 00
       -1.2532e-40 3.03e-42 6.9425e-41 2.256e-42
000160 fe 50 00 80 e5 9a 00 00 9c 86 00 80 b2 63 01 80
       -2.9055e-41 5.5566e-41 -4.8289e-41 -1.276e-40
000170 cc b8 01 00 e3 34 00 80 1b 47 01 80 28 ae 00 80
       1.58128e-40 -1.8972e-41 -1.17343e-40 -6.2475e-41
000180 39 02 01 80 5e fb 00 00 13 85 00 00 ea 11 01 00
       -9.2633e-41 9.0174e-41 4.7738e-41 9.8262e-41
000190 a6 89 01 00 8d 7a 00 00 6e 4f 01 80 29 13 01 80
       1.41214e-40 4.3963e-41 -1.2033e-40 -9.8709e-41
0001a0 e8 c0 01 00 8d 99 00 80 cc d5 01 00 e8 41 01 00
       1.61037e-40 -5.5084e-41 1.68531e-40 1.15478e-40
0001b0 69 ae 00 00 b1 8e 00 80 8e a1 00 80 12 37 01 00
       6.2567e-41 -5.1188e-41 -5.7955e-41 1.11591e-40
0001c0 d7 02 02 00 75 a1 01 00 0f 85 00 80 79 8d 00 80
       1.8469e-40 1.49755e-40 -4.7732e-41 -5.0751e-41
0001d0 73 8f 00 80 a3 39 01 00 7a db 00 80 8f 65 01 00
       -5.146e-41 1.12512e-40 -7.8733e-41 1.28268e-40
0001e0 37 44 01 00 2c 04 01 00 b5 0c 01 80 50 32 01 80
       1.16306e-40 9.3332e-41 -9.6394e-41 -1.09884e-40
0001f0 08 20 01 00 45 37 01 80 2d ad 00 00 01 cd 01 80
       1.03326e-40 -1.11662e-40 6.2124e-41 -1.65377e-40
000200 46 4e 00 80 0b 80 00 80 ba 2e 00 00 fd 76 01 00
       -2.8079e-41 -4.5933e-41 1.6762e-41 1.3452e-40
000210 5c 5a 01 80 07 2d 00 00 a3 12 00 00 a4 5d 00 00
       -1.2425e-40 1.6153e-41 6.686e-42 3.3592e-41
000220 29 5e 01 00 38 d7 00 00 96 46 01 80 ce 85 01 00
       1.25614e-40 7.7206e-41 -1.17157e-40 1.39836e-40
000230 79 ea 00 80 e1 39 01 80 5e 5a 01 00 2b 44 00 80
       -8.4113e-41 -1.12599e-40 1.24253e-40 -2.4454e-41
000240 d8 b5 00 80 bb 62 00 80 ab 75 00 80 bb 2d 00 80
       -6.5233e-41 -3.5418e-41 -4.2211e-41 -1.6405e-41
000250 19 2b 02 00 ed 59 01 80 31 00 01 00 d6 5f 01 80
       1.99132e-40 -1.24095e-40 9.1904e-41 -1.26215e-40
000260 87 57 00 80 f7 48 01 80 10 2c 00 80 b6 ab 01 00
       -3.1399e-41 -1.1801e-40 -1.5807e-41 1.53434e-40
000270 2a 67 01 00 e6 22 00 00 7f aa 01 00 01 e5 00 80
       1.28844e-40 1.2519e-41 1.52998e-40 -8.2151e-41
000280 4f 4c 01 00 18 d4 00 80 55 5a 00 00 f9 9a 01 80
       1.1921e-40 -7.6085e-41 3.2405e-41 -1.47429e-40
000290 a0 11 01 80 1f 49 01 00 f5 05 02 00 1c ee 01 00
       -9.8158e-41 1.18066e-40 1.85808e-40 1.77253e-40
0002a0 7e 69 01 80 0f 3b 00 00 d0 58 00 00 d9 4a 01 80
       -1.29679e-40 2.1186e-41 3.186e-41 -1.18686e-40
0002b0 92 9e 01 80 69 b4 00 80 29 34 01 80 85 cd 00 00
       -1.4872e-40 -6.4719e-41 -1.10547e-40 7.3727e-41
0002c0 eb 1b 01 80 65 09 01 00 ee 25 01 00 30 ed 00 00
       -1.0185e-40 9.5206e-41 1.05442e-40 8.5087e-41
0002d0 6b 70 00 00 d8 63 01 80 41 f9 00 80 b3 d7 00 80
       4.0328e-41 -1.27653e-40 -8.9415e-41 -7.7378e-41
0002e0 d8 5a 00 80 bf 20 02 00 1f 29 00 80 f2 44 00 80
       -3.2589e-41 1.95418e-40 -1.4751e-41 -2.4733e-41
0002f0 fb 64 01 00 d0 ee 01 00 68 8a 01 00 5e 89 00 80
       1.2806e-40 1.77505e-40 1.41486e-40 -4.9278e-41
000300 39 28 01 80 0d 6c 00 00 12 aa 01 00 2e 01 01 00
       -1.06265e-40 3.8761e-41 1.52845e-40 9.2259e-41
000310 e4 97 01 80 3e 09 00 00 44 34 02 80 ea 69 00 00
       -1.46324e-40 3.315e-42 -2.0242e-40 3.7995e-41
000320 97 c7 01 80 53 6d 01 80 53 f0 00 80 d6 80 00 00
       -1.63435e-40 -1.31054e-40 -8.6212e-41 4.6218e-41
000330 04 25 00 80 e1 c1 00 00 76 4f 01 80 40 f5 01 80
       -1.3279e-41 6.955e-41 -1.20341e-40 -1.79815e-40
000340 33 c9 01 80 70 1b 01 80 d6 38 01 00 fb 54 01 80
       -1.64012e-40 -1.01678e-40 1.12224e-40 -1.22321e-40
000350 2b b5 00 80 4f 5e 00 80 a7 e7 00 80 17 5d 00 80
       -6.4991e-41 -3.3832e-41 -8.3101e-41 -3.3394e-41
000360 75 43 00 00 ce 0f 00 80 04 a8 01 80 78 41 01 80
       2.4199e-41 -5.67e-42 -1.52108e-40 -1.15321e-40
000370 ab a3 01 00 61 3d 00 80 8b 2f 01 00 4d 7f 00 80
       1.50549e-40 -2.2019e-41 1.0889e-40 -4.5667e-41
000380 60 15 01 80 ff 1d 00 00 3f f2 01 80 e1 b2 00 80
       -9.9503e-41 1.076e-41 -1.78737e-40 -6.417e-41
000390 d6 e4 01 80 21 af 00 80 2c 38 00 80 7d 5f 01 00
       -1.73926e-40 -6.2824e-41 -2.015e-41 1.2609e-40
0003a0 3d 2e 00 80 fd 07 01 00 f0 bc 00 80 ab 7d 01 00
       -1.6587e-41 9.4701e-41 -6.7778e-41 1.36917e-40
0003b0 11 57 00 80 8a 02 02 80 4a 37 01 80 3f ad 00 80
       -3.1234e-41 -1.84582e-40 -1.1167e-40 -6.2149e-41
0003c0 c4 b6 00 80 59 1e 01 80 2f d0 00 80 26 fe 00 80
       -6.5564e-41 -1.02722e-40 -7.4682e-41 -9.1171e-41
0003d0 bc 47 01 80 e1 96 01 00 86 fd 00 80 84 d9 00 00
       -1.17569e-40 1.4596e-40 -9.0947e-41 7.803e-41
0003e0 7c 30 01 00 87 63 01 00 e2 ed 01 00 a4 03 00 80
       1.09228e-40 1.27539e-40 1.77172e-40 -1.306e-42
0003f0 91 03 02 00 64 0f 01 80 9c 7a 00 00 78 87 01 00
       1.8495e-40 -9.7357e-41 4.3984e-41 1.40433e-40

e_conv3.point_conv.bias f4 [32]
000000 21 b0 01 00 b3 78 01 80 cd 76 00 80 85 d2 00 80
       1.55019e-40 -1.35134e-40 -4.2618e-41 -7.552e-41
000010 6f 30 01 00 be 2f 01 00 19 9b 00 00 19 0b 01 80
       1.0921e-40 1.08962e-40 5.5639e-41 -9.5817e-41
000020 b3 49 01 80 6a 90 00 80 8f 1b 01 00 d2 4e 00 80
       -1.18274e-40 -5.1806e-41 1.01722e-40 -2.8275e-41
000030 bc 74 00 00 e0 07 02 00 9a 77 01 00 29 a2 00 80
       4.1876e-41 1.86496e-40 1.3474e-40 -5.8172e-41
000040 dd 78 01 00 d0 28 01 80 00 40 01 00 48 9e 00 00
       1.35193e-40 -1.06476e-40 1.14794e-40 5.678e-41
000050 bb a2 01 80 2a 06 01 80 8f 6b 00 00 88 ab 01 80
       -1.50212e-40 -9.4047e-41 3.8585e-41 -1.5337e-40
000060 2b 71 00 00 d0 8f 00 80 96 61 00 80 dc 36 01 00
       4.0597e-41 -5.159e-41 -3.5007e-41 1.11515e-40
000070 c4 22 01 00 40 4f 00 80 63 6f 00 80 fd 2d 00 80
       1.04307e-40 -2.843e-41 -3.9958e-41 -1.6497e-41

e_conv4.depth_conv.weight f4 [32, 1, 3, 3]
000000 6c 61 00 80 ff a7 00 80 04 05 01 80 3c 8b 00 00
       -3.4948e-41 -6.0266e-41 -9.3635e-41 4.9948e-41
000010 ff 60 00 00 0c 51 01 00 d7 04 02 00 1d f6 00 80
       3.4796e-41 1.2091e-40 1.85407e-40 -8.8289e-41
000020 ef 45 00 80 e2 8e 00 00 ba 78 00 80 47 ee 01 80
       -2.5087e-41 5.1257e-41 -4.3309e-41 -1.77313e-40
000030 72 44 01 80 db 19 01 80 f4 47 00 80 f6 e2 01 00
       -1.16389e-40 -1.0111e-40 -2.5812e-41 1.73254e-40
000040 af 17 00 80 7e 19 02 80 9f 7e 00 80 b3 5a 00 80
       -8.496e-42 -1.92816e-40 -4.5423e-41 -3.2537e-41
000050 c9 2a 01 00 42 06 01 80 73 27 01 00 0e 92 00 80
       1.07184e-40 -9.408e-41 1.05987e-40 -5.2395e-41
000060 9c cb 00 80 6e 1a 00 80 d9 16 01 80 90 78 01 00
       -7.3041e-41 -9.481e-42 -1.00032e-40 1.35085e-40
000070 0c 65 00 00 dc d0 01 00 30 69 01 00 4f c0 01 80
       3.6249e-41 1.6676e-40 1.2957e-40 -1.60823e-40
000080 df b9 00 80 d8 4a 00 80 a4 2b 00 00 24 48 00 00
       -6.6678e-41 -2.6849e-41 1.5655e-41 2.5879e-41
000090 60 11 00 00 c0 29 01 80 17 70 01 00 60 f4 00 80
       6.233e-42 -1.06813e-40 1.32046e-40 -8.7665e-41
0000a0 8d 61 00 00 9c 22 00 00 1c 74 00 00 68 6c 01 00
       3.4995e-41 1.2416e-41 4.1652e-41 1.30724e-40
0000b0 8b 6f 00 80 ff a0 00 80 23 5b 00 80 0a 67 01 80
       -4.0014e-41 -5.7755e-41 -3.2694e-41 -1.28799e-40
0000c0 1d 78 01 80 a9 23 01 00 bb 12 02 00 06 ac 00 00
       -1.34924e-40 1.04628e-40 1.9039e-40 6.171e-41
0000d0 a1 9d 01 00 21 ef 00 00 fd a2 00 80 f2 2b 00 00
       1.48382e-40 8.5783e-41 -5.8469e-41 1.5765e-41
0000e0 bf bc 01 80 92 b7 00 00 83 a7 00 00 64 11 01 80
       -1.59545e-40 6.5853e-41 6.0092e-41 -9.8074e-41
0000f0 bf 52 01 00 43 76 01 80 2e 6b 01 00 a9 d8 00 00
       1.21519e-40 -1.3426e-40 1.30284e-40 7.7723e-41
000100 60 dc 00 00 e5 64 01 00 2a 55 01 80 6f b8 01 80
       7.9056e-41 1.2803e-40 -1.22387e-40 -1.57998e-40
000110 27 8e 01 00 48 6e 00 80 37 94 00 80 1e a1 00 00
       1.4283e-40 -3.9561e-41 -5.317e-41 5.7798e-41
000120 cc 02 01 80 5a 7b 01 80 06 21 01 00 d1 eb 00 80
       -9.2839e-41 -1.36086e-40 1.03682e-40 -8.4595e-41
000130 e1 59 00 80 62 0b 00 80 d7 99 00 80 c4 75 00 80
       -3.2242e-41 -4.083e-42 -5.5187e-41 -4.2246e-41
000140 64 90 00 00 97 04 01 80 16 04 00 80 1b 2e 00 80
       5.1798e-41 -9.3482e-41 -1.466e-42 -1.654e-41
000150 7f 37 00 00 6f 05 02 00 cd 66 00 80 16 0a 01 80
       1.9908e-41 1.8562e-40 -3.6878e-41 -9.5454e-41
000160 f5 4a 00 80 c2 61 01 80 e9 ff 00 80 8b 64 01 00
       -2.689e-41 -1.26904e-40 -9.1803e-41 1.27904e-40
000170 af 17 00 80 57 36 01 00 12 96 00 80 82 ec 01 00
       -8.496e-42 1.11329e-40 -5.3835e-41 1.76679e-40
000180 5a 16 00 80 8f 84 01 00 f9 6d 00 00 80 e4 01 00
       -8.018e-42 1.39389e-40 3.9451e-41 1.73806e-40
000190 7d ff 00 80 79 08 02 00 8a 4f 00 00 2c 0a 00 80
       -9.1652e-41 1.8671e-40 2.8533e-41 -3.649e-42
0001a0 6e 0b 01 00 99 10 00 80 50 14 00 00 bf 87 01 80
       9.5936e-41 -5.954e-42 7.287e-42 -1.40532e-40
0001b0 43 69 01 00 a8 a6 00 80 d8 59 01 00 3b 45 01 00
       1.29596e-40 -5.9785e-41 1.24065e-40 1.16671e-40
0001c0 13 7a 00 00 70 01 00 80 5b 21 01 00 a4 83 01 00
       4.3792e-41 -5.16e-43 1.03801e-40 1.39059e-40
0001d0 33 76 01 80 8f e9 01 00 a9 24 00 80 96 cb 00 00
       -1.34237e-40 1.7562e-40 -1.3151e-41 7.3033e-41
0001e0 83 d4 00 80 95 f4 01 00 07 52 00 80 f9 27 01 00
       -7.6235e-41 1.79575e-40 -2.9426e-41 1.06175e-40
0001f0 3c 0a 01 00 9b 2f 00 80 5f a7 00 80 ca 8d 01 00
       9.5507e-41 -1.7078e-41 -6.0041e-41 1.427e-40
000200 7d 3b 01 80 e1 8a 00 00 74 7b 01 00 a1 c7 00 00
       -1.13176e-40 4.982e-41 1.36122e-40 7.1613e-41
000210 2b 9c 01 80 33 88 00 00 b9 1f 01 00 7c 50 00 80
       -1.47858e-40 4.8859e-41 1.03215e-40 -2.8872e-41
000220 cb 0f 01 00 ce 23 01 00 68 23 00 80 86 73 01 00
       9.7501e-41 1.0468e-40 -1.2701e-41 1.33277e-40
000230 84 25 01 00 b4 19 01 00 71 70 01 80 6f 81 00 00
       1.05294e-40 1.01056e-40 -1.32172e-40 4.6432e-41
000240 97 74 01 00 84 12 00 80 e2 6d 00 00 46 fd 01 80
       1.3366e-40 -6.642e-42 3.9419e-41 -1.82693e-40
000250 66 2f 00 80 cc 4a 00 80 72 4f 01 80 4b 65 01 00
       -1.7003e-41 -2.6832e-41 -1.20335e-40 1.28173e-40
000260 3a 85 01 00 10 fe 00 00 0c 4a 00 00 a3 be 00 00
       1.39628e-40 9.114e-41 2.6563e-41 6.8388e-41
000270 00 8f 00 80 ae 20 01 00 9b 28 00 00 25 a4 00 80
       -5.1299e-41 1.03559e-40 1.4566e-41 -5.8884e-41
000280 f6 6a 01 80 0f 26 01 00 1d 2e 00 00 22 0d 01 00
       -1.30206e-40 1.05488e-40 1.6542e-41 9.6547e-41
000290 40 08 00 80 d6 a8 00 80 a8 c2 01 00 ac 6a 00 80
       -2.96e-42 -6.0567e-41 1.61665e-40 -3.8267e-41
0002a0 d0 a7 00 80 2b 3f 00 00 15 b2 00 00 f3 8a 00 00
       -6.02e-41 2.266e-41 6.3884e-41 4.9846e-41
0002b0 f9 09 02 80 89 1c 00 00 4c 2a 02 00 d2 3d 00 00
       -1.87249e-40 1.0236e-41 1.98844e-40 2.2177e-41
0002c0 ee e9 00 00 79 00 01 80 26 d9 00 80 ba 43 01 80
       8.3918e-41 -9.2005e-41 -7.7898e-41 -1.16131e-40
0002d0 22 24 00 00 bd 2b 01 80 4e 21 01 00 b8 46 01 80
       1.2962e-41 -1.07526e-40 1.03783e-40 -1.17205e-40
0002e0 1c 34 02 80 7b d8 00 00 83 0c 02 00 76 f3 01 00
       -2.02364e-40 7.7659e-41 1.8816e-40 1.79173e-40
0002f0 17 7d 01 80 5b 5a 00 00 40 e7 00 00 1a 2a 00 80
       -1.36709e-40 3.2413e-41 8.2957e-41 -1.5103e-41
000300 28 f3 00 80 16 d3 00 80 df ff 00 00 61 5f 00 80
       -8.7228e-41 -7.5723e-41 9.1789e-41 -3.4216e-41
000310 63 c3 00 80 3b a1 00 00 7b 63 00 80 c1 f2 00 00
       -7.0092e-41 5.7839e-41 -3.5687e-41 8.7084e-41
000320 ce ea 00 80 21 83 01 00 57 48 01 00 b5 4f 01 80
       -8.4232e-41 1.38876e-40 1.17786e-40 -1.20429e-40
000330 10 04 00 00 49 a4 00 80 0c 44 01 80 34 81 01 80
       1.457e-42 -5.8934e-41 -1.16246e-40 -1.38185e-40
000340 fd 09 02 80 0f 5c 01 00 e3 ec 01 80 c6 76 00 80
       -1.87254e-40 1.2486e-40 -1.76814e-40 -4.2608e-41
000350 e7 19 00 00 2f ff 00 80 90 17 01 80 ea d7 00 80
       9.292e-42 -9.1543e-41 -1.00288e-40 -7.7455e-41
000360 52 5d 01 00 4a df 00 00 85 17 01 00 9c b9 00 80
       1.25313e-40 8.0101e-41 1.00273e-40 -6.6584e-41
000370 cc 6b 00 80 27 ec 00 00 6c 23 00 80 74 10 00 00
       -3.867e-41 8.4715e-41 -1.2707e-41 5.902e-42
000380 7b a0 00 00 c6 3e 00 80 f4 89 01 00 04 0e 01 00
       5.757e-41 -2.2519e-41 1.41324e-40 9.6863e-41
000390 10 6d 00 00 f3 c2 00 00 64 b8 00 00 12 05 00 00
       3.9124e-41 6.9935e-41 6.6147e-41 1.819e-42
0003a0 db 61 00 80 34 48 01 00 16 5b 01 00 d2 a0 00 80
       -3.5104e-41 1.17737e-40 1.24511e-40 -5.7691e-41
0003b0 84 84 01 80 6f 28 02 00 f1 88 00 00 00 23 01 80
       -1.39373e-40 1.98176e-40 4.9125e-41 -1.04391e-40
0003c0 1e f8 01 80 26 a9 01 00 7e bd 01 80 15 0b 02 80
       -1.80843e-40 1.52515e-40 -1.59812e-40 -1.87646e-40
0003d0 88 fc 00 80 c1 6c 01 00 da 50 00 80 2b 4c 01 00
       -9.0591e-41 1.30849e-40 -2.9004e-41 1.1916e-40
0003e0 9d e4 00 00 b8 59 00 80 0a 49 01 80 e2 4f 01 80
       8.2011e-41 -3.2185e-41 -1.18037e-40 -1.20492e-40
0003f0 a7 ff 00 80 6a 88 00 80 e7 df 00 00 3b 1b 00 00
       -9.1711e-41 -4.8936e-41 8.0321e-41 9.768e-42

e_conv4.depth_conv.bias f4 [32]
000000 10 a0 01 00 ed fc 00 80 87 da 00 00 66 aa 00 80
       1.49255e-40 -9.0733e-41 7.8393e-41 -6.1127e-41
000010 4a 94 01 00 ca 29 01 80 ce 5f 01 80 50 31 00 00
       1.45032e-40 -1.06827e-40 -1.26204e-40 1.769e-41
000020 e4 14 01 00 90 b9 00 80 10 2f 00 00 6a 99 00 80
       9.933e-41 -6.6567e-41 1.6883e-41 -5.5035e-41
000030 35 08 00 80 19 5f 00 80 bf db 00 80 30 f2 00 80
       -2.944e-42 -3.4115e-41 -7.883e-41 -8.688e-41
000040 17 88 01 80 c1 b5 00 80 9c a1 00 00 fe 0b 01 00
       -1.40655e-40 -6.5201e-41 5.7975e-41 9.6137e-41
000050 63 97 00 80 dd a3 00 80 d5 3a 01 00 49 0d 01 80
       -5.4307e-41 -5.8783e-41 1.1294e-40 -9.6601e-41
000060 26 a8 00 80 2b 01 00 00 0b 75 01 00 7d de 00 80
       -6.032e-41 4.19e-43 1.33823e-40 -7.9814e-41
000070 28 42 00 00 0d 66 00 00 19 16 01 00 07 cf 01 80
       2.3732e-41 3.6609e-41 9.9763e-41 -1.66103e-40

e_conv4.point_conv.weight f4 [32, 32, 1, 1]
000000 70 fd 00 00 dd 58 00 00 09 68 00 80 b5 64 00 80
       9.0916e-41 3.1878e-41 -3.7321e-41 -3.6127e-41
000010 5d 11 01 00 e7 86 00 80 c3 ad 01 80 56 a9 00 00
       9.8064e-41 -4.8394e-41 -1.5417e-40 6.0746e-41
000020 0b ba 01 00 e5 33 01 80 1d 24 00 80 b1 3c 00 00
       1.58575e-40 -1.10452e-40 -1.2955e-41 2.1772e-41
000030 ff d0 00 80 77 90 00 80 3b 0a 01 80 52 25 01 80
       -7.4974e-41 -5.1824e-41 -9.5505e-41 -1.05224e-40
000040 db 88 00 00 51 ed 01 80 53 b7 01 00 2b 55 01 80
       4.9094e-41 -1.76969e-40 1.576e-40 -1.22388e-40
000050 6d 31 00 00 23 b2 00 00 12 a7 00 80 ef e9 01 80
       1.773e-41 6.3903e-41 -5.9934e-41 -1.75755e-40
000060 e1 e4 01 00 6d 1c 01 00 92 dd 00 80 74 5c 01 80
       1.73942e-40 1.02033e-40 -7.9484e-41 -1.25001e-40
000070 b5 24 02 00 f7 ab 00 00 cf 6d 01 80 8c 18 01 80
       1.96839e-40 6.169e-41 -1.31227e-40 -1.00641e-40
000080 a2 d1 00 80 b3 41 00 80 f3 d3 01 00 e4 5b 00 80
       -7.5202e-41 -2.3568e-41 1.67869e-40 -3.2964e-41
000090 37 e3 00 80 ca 1d 00 80 6f 4a 01 80 e0 a1 00 00
       -8.151e-41 -1.0686e-41 -1.18537e-40 5.807e-41
0000a0 67 73 01 80 5b 8c 00 00 fe 01 00 00 4f 26 02 80
       -1.33234e-40 5.035e-41 7.15e-43 -1.97414e-40
0000b0 8a 40 00 80 59 21 02 00 e8 0d 00 00 78 d2 01 00
       -2.3152e-41 1.95634e-40 4.989e-42 1.67337e-40
0000c0 08 a7 00 80 71 1f 02 80 0e 37 01 80 31 36 02 00
       -5.992e-41 -1.9495e-40 -1.11585e-40 2.03111e-40
0000d0 7f 33 02 80 17 12 02 80 e5 f0 00 80 df 9d 00 80
       -2.02144e-40 -1.9016e-40 -8.6417e-41 -5.6633e-41
0000e0 94 38 01 80 92 32 00 00 61 18 00 80 8f 3b 00 80
       -1.12132e-40 1.8141e-41 -8.746e-42 -2.1366e-41
0000f0 fd c5 00 80 bf f3 00 80 48 12 02 00 63 fe 00 00
       -7.1025e-41 -8.744e-41 1.90229e-40 9.1257e-41
000100 3e 1b 01 80 33 58 00 80 08 d5 00 80 21 33 01 80
       -1.01608e-40 -3.164e-41 -7.6421e-41 -1.10177e-40
000110 20 64 01 80 28 48 01 00 4f 34 00 80 16 07 01 00
       -1.27754e-40 1.1772e-40 -1.8765e-41 9.4377e-41
000120 0d de 01 00 5c f6 00 80 9e 69 01 00 cd 87 01 00
       1.71492e-40 -8.8377e-41 1.29724e-40 1.40552e-40
000130 fa d2 00 00 23 22 01 80 41 50 01 80 26 46 00 80
       7.5684e-41 -1.04081e-40 -1.20625e-40 -2.5165e-41
000140 a6 1b 00 80 91 b4 00 00 c6 3d 01 00 23 86 01 00
       -9.918e-42 6.4775e-41 1.13996e-40 1.39955e-40
000150 e4 76 01 80 1b 90 00 00 8b 58 01 80 e6 54 00 80
       -1.34485e-40 5.1695e-41 -1.23599e-40 -3.0456e-41
000160 fc 32 00 00 d4 6a 01 00 6d 22 00 00 a6 9d 00 80
       1.829e-41 1.30158e-40 1.235e-41 -5.6554e-41
000170 32 8d 01 00 13 a2 01 80 f8 47 00 80 e5 3b 00 00
       1.42487e-40 -1.49977e-40 -2.5818e-41 2.1486e-41
000180 6b b1 00 80 b1 a2 00 00 d4 92 01 00 93 48 00 00
       -6.3646e-41 5.8363e-41 1.44508e-40 2.6035e-41
000190 cd 05 01 80 e3 23 01 80 d4 eb 00 80 ef 64 01 80
       -9.3916e-41 -1.04709e-40 -8.4599e-41 -1.28044e-40
0001a0 94 17 01 00 d1 32 01 00 38 59 01 80 d5 11 01 00
       1.00294e-40 1.10065e-40 -1.23841e-40 9.8232e-41
0001b0 42 29 00 00 bb 28 01 80 ad 71 00 80 b2 36 01 80
       1.48e-41 -1.06447e-40 -4.0779e-41 -1.11456e-40
0001c0 d2 28 00 00 c7 72 00 80 c6 2a 01 80 8f 86 00 80
       1.4644e-41 -4.1174e-41 -1.0718e-40 -4.827e-41
0001d0 ec 87 00 80 2e 41 01 80 d2 60 00 80 2c 0a 00 80
       -4.876e-41 -1.15218e-40 -3.4733e-41 -3.649e-42
0001e0 d7 fc 00 00 56 a0 00 00 13 34 00 00 9f 70 01 00
       9.0702e-41 5.7518e-41 1.8681e-41 1.32236e-40
0001f0 5d 1d 01 00 1f e4 00 00 ab 55 01 80 e1 54 01 80
       1.02369e-40 8.1834e-41 -1.22567e-40 -1.22284e-40
000200 ab 7c 01 00 54 50 01 00 76 af 00 00 48 19 01 00
       1.36558e-40 1.20652e-40 6.2944e-41 1.00905e-40
000210 4a 35 00 00 34 9e 00 00 61 cb 00 00 70 27 00 00
       1.9117e-41 5.6753e-41 7.2959e-41 1.4148e-41
000220 53 e6 00 80 79 86 01 00 11 85 01 80 d9 b0 00 80
       -8.2625e-41 1.40075e-40 -1.39571e-40 -6.3441e-41
000230 71 2a 02 80 39 1a 00 00 6a 4f 01 80 7e 89 01 80
       -1.98896e-40 9.407e-42 -1.20324e-40 -1.41158e-40
000240 7a 9e 00 00 40 d3 01 00 f5 a2 00 80 19 32 00 80
       5.685e-41 1.67618e-40 -5.8458e-41 -1.7972e-41
000250 a0 f0 00 00 40 10 01 00 62 69 01 80 03 83 00 80
       8.632e-41 9.7665e-41 -1.2964e-40 -4.6998e-41
000260 9f f5 00 00 2c 22 00 80 94 2a 01 00 90 8f 01 00
       8.8112e-41 -1.2259e-41 1.0711e-40 1.43336e-40
000270 c4 6b 00 00 de 5a 01 00 d2 47 01 80 0d ea 00 80
       3.8659e-41 1.24433e-40 -1.176e-40 -8.3962e-41
000280 ce 89 00 80 4a 67 01 00 0a be 01 00 bb 0f 00 00
       -4.9435e-41 1.28889e-40 1.60009e-40 5.643e-42
000290 94 b0 00 00 63 35 00 80 5d 36 00 00 e7 5f 00 80
       6.3344e-41 -1.9152e-41 1.9502e-41 -3.4403e-41
0002a0 d3 e2 00 00 92 a4 01 00 d3 fc 01 00 66 44 01 00
       8.1369e-41 1.50872e-40 1.82532e-40 1.16372e-40
0002b0 3c 8a 01 00 58 99 01 00 49 65 00 00 d8 28 01 80
       1.41425e-40 1.46845e-40 3.6334e-41 -1.06487e-40
0002c0 fa 34 01 80 2f 95 00 00 da 4d 01 00 e5 63 00 00
       -1.1084e-40 5.3517e-41 1.19763e-40 3.5835e-41
0002d0 cb 7f 01 00 94 4e 00 00 73 25 01 80 50 31 00 00
       1.37679e-40 2.8189e-41 -1.0527e-40 1.769e-41
0002e0 2d e9 00 80 b2 17 01 00 2e d9 01 80 36 f5 00 00
       -8.3648e-41 1.00336e-40 -1.69745e-40 8.7965e-41
0002f0 25 2e 00 80 e0 03 01 00 fc c7 00 00 76 d4 00 80
       -1.6554e-41 9.3226e-41 7.1741e-41 -7.6217e-41
000300 68 c7 00 80 0d 54 00 00 e9 38 01 00 7a ff 00 80
       -7.1533e-41 3.0152e-41 1.12251e-40 -9.1648e-41
000310 ad 88 00 80 1c 04 00 80 66 3f 01 80 3e 23 01 80
       -4.903e-41 -1.474e-42 -1.14579e-40 -1.04478e-40
000320 53 17 00 00 c2 16 00 00 3e 36 01 00 52 be 00 00
       8.367e-42 8.164e-42 1.11294e-40 6.8274e-41
000330 75 39 00 80 50 bd 01 00 c4 59 01 80 99 f1 00 00
       -2.0612e-41 1.59748e-40 -1.24037e-40 8.6669e-41
000340 f0 34 01 00 83 c7 01 00 25 15 00 00 8d 45 01 80
       1.10826e-40 1.63407e-40 7.585e-42 -1.16786e-40
000350 5a 21 01 00 7d 9e 00 00 b6 b6 00 80 be 1f 00 80
       1.038e-40 5.6855e-41 -6.5544e-41 -1.1387e-41
000360 1a 7c 00 00 38 1b 00 00 80 62 01 00 cf 9f 01 80
       4.4519e-41 9.764e-42 1.2717e-40 -1.49164e-40
000370 0b 3a 00 00 13 85 01 80 05 0e 01 00 e3 65 00 80
       2.0822e-41 -1.39574e-40 9.6865e-41 -3.655e-41
000380 61 69 01 80 a2 2a 00 80 a3 1d 01 80 68 53 01 00
       -1.29638e-40 -1.5294e-41 -1.02467e-40 1.21756e-40
000390 72 bf 01 80 c2 12 01 80 2a 88 01 80 08 96 01 80
       -1.60513e-40 -9.8565e-41 -1.40682e-40 -1.45657e-40
0003a0 56 d9 01 00 c0 b0 00 80 2b 6a 00 80 fe b0 00 80
       1.69801e-40 -6.3406e-41 -3.8086e-41 -6.3493e-41
0003b0 f0 12 02 00 ab 96 01 00 9a 7d 00 00 d9 64 00 80
       1.90464e-40 1.45885e-40 4.5057e-41 -3.6177e-41
0003c0 c7 95 00 80 9f af 00 00 a4 a7 00 80 1e c9 00 80
       -5.373e-41 6.3001e-41 -6.0138e-41 -7.2147e-41
0003d0 f0 2e 01 00 01 7d 00 80 29 84 01 00 c9 af 00 80
       1.08673e-40 -4.4843e-41 1.39246e-40 -6.306e-41
0003e0 07 25 00 00 28 19 01 00 66 ed 00 80 27 97 00 00
       1.3283e-41 1.0086e-40 -8.5163e-41 5.4223e-41
0003f0 64 87 01 00 44 59 01 00 80 10 01 00 28 2a 00 80
       1.40405e-40 1.23858e-40 9.7755e-41 -1.5123e-41

e_conv4.point_conv.bias f4 [32]
000000 97 14 00 80 12 bc 00 80 dc 4b 00 80 55 25 00 00
       -7.386e-42 -6.7467e-41 -2.7213e-41 1.3392e-41
000010 d4 40 00 00 67 26 00 80 06 f2 00 80 3f ad 01 00
       2.3256e-41 -1.3776e-41 -8.6822e-41 1.53984e-40
000020 c7 77 01 80 39 96 01 80 a0 eb 00 00 b2 3d 01 80
       -1.34804e-40 -1.45725e-40 8.4526e-41 -1.13968e-40
000030 3a d3 00 80 41 3b 01 00 0d 2b 02 00 e8 00 01 00
       -7.5774e-41 1.13092e-40 1.99115e-40 9.216e-41
000040 4b 07 00 00 f8 4c 01 00 db 61 00 80 c3 20 01 00
       2.616e-42 1.19447e-40 -3.5104e-41 1.03588e-40
000050 f7 0f 02 00 97 b0 01 80 b5 97 01 80 ed 24 01 80
       1.89398e-40 -1.55184e-40 -1.46258e-40 -1.05082e-40
000060 8a 49 01 00 16 55 01 80 53 4b 01 00 d4 ae 00 00
       1.18216e-40 -1.22359e-40 1.18857e-40 6.2717e-41
000070 05 69 01 80 1f 23 00 80 b0 10 01 00 eb ff 00 00
       -1.2951e-40 -1.2599e-41 9.7822e-41 9.1806e-41
